lstm18.py
18-07-14-13-29-24

lstm18.py[1.0343919573260063, 0.7232421875]
lstm18.py
18-07-14-13-29-24

_________________________________________________________________
Layer (type)                 Output Shape              Param #   
=================================================================
input_1 (InputLayer)         (None, 38)                0         
_________________________________________________________________
embedding_1 (Embedding)      (None, 38, 300)           75301800  
_________________________________________________________________
dropout_1 (Dropout)          (None, 38, 300)           0         
_________________________________________________________________
lstm_1 (LSTM)                (None, 38, 600)           2162400   
_________________________________________________________________
dropout_2 (Dropout)          (None, 38, 600)           0         
_________________________________________________________________
dense_final (Dense)          (None, 38, 512)           307712    
_________________________________________________________________
lambda_1 (Lambda)            (None, 38, 512)           0         
_________________________________________________________________
flatten_1 (Flatten)          (None, 19456)             0         
_________________________________________________________________
dropout_3 (Dropout)          (None, 19456)             0         
_________________________________________________________________
softmax_final (Dense)        (None, 64)                1245248   
=================================================================
Total params: 79,017,160
Trainable params: 79,017,160
Non-trainable params: 0
_________________________________________________________________


loss: 1.034392
acc: 0.723242


Classification Report: 
\begin{tabular}{llrrrr}
{} &                   class &  f1\_score &  precision &  recall &  support \\
0  &                Aircraft &      0.77 &       0.82 &    0.73 &   1200.0 \\
…
